models/TinyVGGV1.pth (torch, 450182 bytes, 76 tensors)

conv_block_1.0.weight f4 [10, 3, 3, 3]
00000000: 36cb 643e c2b3 d0bd bb9b 953d 9474 ed3d
00000010: f96c 193e a85e fd3d ffe5 e83d 5384 023d
00000020: 04e2 e63d 6041 553c 0e82 d73d 2e99 de3d
00000030: 2dbb 20bd e34b 5b3d 122c 42be 8b32 cabd
00000040: 5f4d 943d f76a db3c 8d4b 1f3e 89a6 51bc
00000050: e91f 72bd 8b27 0d3e 1e09 b1bd 461d 8ebd
00000060: 1caf b43c 3ca3 8d3d cdb1 b2bb 3516 ccbd
00000070: 1766 353e e60b 0bbe 671b 403d 3ccd e0bd
00000080: 1ffd 013e 9a12 29be fe1e ea3d acee a93d
00000090: ec87 01bd 1311 bcbd 0a8e 7ebd 3c81 0e3e
000000a0: 8393 11be 9d0d 1cbe 0ce7 bebd 6609 2abd
000000b0: 98c4 333d 97d6 ccbd e83e 443d 965d 533d
000000c0: 5ab8 0abe 5f39 8cbd 7568 e33d e3c3 3a3e
000000d0: adeb 51be 2dd2 d5bd 5013 33be be69 9cbd
000000e0: 5e93 533d 685f 043d dedc 903d 6da4 8b3b
000000f0: 711c fdbc eb80 ba3d eccb 88bb bf3f dc3c
00000100: 9219 003e 7cb5 00bd 0b6b c03d ae76 3e3d
00000110: 9ced c4bc b7da 1bbe 7e08 18bc 7e93 fe3d
00000120: 2d0e f1bd 4dd9 123a f04e 57be ff54 43be
00000130: 29f2 28be 6260 cdbd 91d6 fd3d 0855 033e
00000140: 5bca df3d 5041 253e b6c8 77bd 9efd f33d
00000150: cd90 393e 59a1 bebd 99dd b83d 45eb bb3d
00000160: bd4b b43c 15aa 24be f022 1d3d 1b07 ca3d
00000170: f5c4 bf3d c5e8 53bd 8cf2 f9bd 31e2 84bd
00000180: b3fe b8bd db81 08bd 5fa9 25be 38ef 1dbe
00000190: 172a 0d3e da31 413d 8838 ae3c e75a 1b3d
000001a0: 6190 053e c9d7 c53d 50e1 30bd 128c 2fbe
000001b0: 6f7a 0e3e 35d3 033d f878 d43d f297 e53d
000001c0: 0d5a 85bb b405 243e ced7 ca3d 2078 9d3c
000001d0: 4658 12be 8f79 25be 370d dbbc 8569 9bbc
000001e0: 8a60 32be fd5c 8cbc df17 b93a 29ec 9abd
000001f0: 69ac cf3c fa57 013d 87ca c23d 4023 d9bd
00000200: 22a0 5ebe 07fa 093c 6d62 c53d a9e7 b83d
00000210: f68a 16bd 9335 853d 11c4 70bd f86d 293c
00000220: 9de0 eb3d 3037 12be 8f66 133e 26e3 d63b
00000230: aff6 4dbd 5e1d cd3d a272 6a3d 9105 38bd
00000240: a8fc a33d 7cf4 c93d 701a df3d a3ee e8bd
00000250: 5dc3 003e 19ea 16be 17b6 e93c 7ac2 fbbb
00000260: 5db9 47be 7fa8 ccbd 9bb7 163d 50f0 243e
00000270: c186 183d 66ef 31bd f53c f63d 884d 9f3d
00000280: 86ae 833d e064 073e 87d1 cabc 4d96 7fbd
00000290: 4095 0cbe d3c0 013e 9afd 9d3a ebcc 393e
000002a0: fa70 b63d 4acb 13be 074c 443e 6e4b c13c
000002b0: 3f67 3e3e 3d87 5cbd 92fa 30be 07b6 273e
000002c0: 732a 2fbd fda1 c53b fef7 24be 586c 02be
000002d0: 89b6 a93d f4a3 ffbd db50 b9bd 9643 07be
000002e0: 529c d0bd 175a dabd 13f9 2cbe 2c12 873d
000002f0: a126 44be b332 323e 181a a7bd deab 9f3c
00000300: b7fc 18be 93e1 1e3e 8bfc 933d a96d 2f3e
00000310: 2c1a bb3d 58ff 17bd 9feb 103e 0733 073e
00000320: ea8e aa3d 493e 4fbd e59e 4bbd 46d3 dd3d
00000330: e57f 123e 138d 6ebd 54e7 053e b9d7 413e
00000340: a9f9 873d 63d5 2c3e ff74 39bd cce6 363e
00000350: 86b6 413e ff4c 97bc 4787 90bd 9213 15be
00000360: 6a15 ce3d d3a5 b23d 6f8f 363e a7a8 0abe
00000370: 4c28 9cbb eaa6 853c 1914 c63d d30e 513e
00000380: 3056 a13d 40dc 913d 2cd7 e63d 20f4 253d
00000390: 7861 003e b504 8bbd d765 9d3d 7a85 e6bd
000003a0: b0f5 f6bc 95b8 e53b 5259 83bc c6e8 22bd
000003b0: 7aa6 333e 93c3 c6bd 8def aabd d6e9 3f3d
000003c0: c458 c3bb d626 dfbd ea49 94bc 1e1e afbc
000003d0: a094 eabd 48ed 4bbe 0d09 9fbc d0a8 943d
000003e0: 9402 0e3d 349d eb3c b009 a63d b5b2 bfbd
000003f0: 79f1 cbbd 3f59 8b3d 6e62 2c3e 89f7 253e
0.22343144 -0.10190536 0.07305094 0.11594501 0.14982976 0.1237157 0.11371993 0.031864475
0.11273578 0.013016075 0.10522853 0.108690605 -0.039241005 0.053539168 -0.18962124 -0.098729216
0.0724132 0.026784403 0.15556164 -0.012796053 -0.059112463 0.13784616 -0.08644317 -0.06939177
0.022056155 0.069159 -0.0054533244 -0.09965173 0.17714725 -0.13578758 0.046901133 -0.10976645
0.12694214 -0.16511002 0.114316925 0.08297476 -0.031623766 -0.09182944 -0.062147178 0.13916487
-0.14216428 -0.15239568 -0.093214124 -0.04151287 0.04388866 -0.10001867 0.047911555 0.051602922
-0.13546887 -0.0684688 0.11103908 0.18238787 -0.2050006 -0.104404785 -0.17487836 -0.07637356
0.051654212 0.03231755 0.07073377 0.0042615444 -0.030897351 0.091066204 -0.0041747 0.026885865
0.12509754 -0.031423077 0.09395417 0.0464999 -0.024039082 -0.15220152 -0.009279368 0.12430476
-0.11770282 0.00056018383 -0.21026206 -0.19075392 -0.16498627 -0.10028149 0.12394441 0.12825406
0.10927268 0.16138196 -0.060494147 0.11913608 0.18121643 -0.093081184 0.090266414 0.091757335
0.022008771 -0.16080506 0.038363397 0.098646365 0.093637384 -0.05173566 -0.12204465 -0.06488455
-0.09032955 -0.033326965 -0.16177891 -0.15423286 0.13785587 0.047166683 0.02126719 0.037928488
0.13043357 0.096602984 -0.043183625 -0.17143276 0.13913892 0.032183845 0.103746355 0.11210622
-0.004069573 0.160178 0.09904443 0.01922232 -0.14291486 -0.16159652 -0.0267397 -0.018971214
-0.17419639 -0.017134184 0.0014121494 -0.07564575 0.025350766 0.03157804 0.09511285 -0.106024265
-0.21740773 0.008421428 0.09637914 0.09028561 -0.036753617 0.06504359 -0.058780733 0.01034116
0.11517451 -0.14278865 0.14394592 0.00655784 -0.050284084 0.10015367 0.05723823 -0.044927184
0.08007175 0.09861085 0.108937144 -0.11373641 0.12574525 -0.14737739 0.02852921 -0.0076830955
-0.19504304 -0.099930756 0.036796194 0.16107297 0.037237886 -0.0434412 0.120233454 0.0777846
0.06429772 0.13222075 -0.024758114 -0.062399197 -0.1372881 0.12671213 0.0012053729 0.18144576
0.08908267 -0.14433017 0.19169627 0.023595538 0.18594073 -0.05383991 -0.17283085 0.16378032
-0.042765092 0.0060312734 -0.16110227 -0.12736642 0.08286769 -0.124824435 -0.09048625 -0.13209376
-0.10186066 -0.106617145 -0.1689189 0.06595263 -0.19155361 0.17402153 -0.08159274 0.019491132
-0.14940153 0.15515737 0.07225903 0.17131676 0.09135851 -0.03710875 0.14152382 0.13203059
0.0832804 -0.05059651 -0.04971208 0.10831313 0.143066 -0.058240008 0.13076526 0.18929948
0.06639416 0.16878276 -0.04527759 0.1786148 0.18917283 -0.018469332 -0.07057052 -0.14558247
0.10062678 0.08723035 0.17828153 -0.13540898 -0.004765546 0.016314942 0.09671802 0.20415811
0.07877767 0.071220875 0.112715095 0.04051602 0.12537181 -0.06788007 0.0768544 -0.112559274
-0.03014645 0.0070105293 -0.016033802 -0.03977277 0.17543975 -0.097052716 -0.08346472 0.046853863
-0.0059615094 -0.10896079 -0.018101651 -0.021376666 -0.11454129 -0.19914734 -0.019413495 0.07258761
0.034670427 0.028761484 0.081073165 -0.093602575 -0.09958167 0.06804132 0.16834423 0.16207708

conv_block_1.0.bias f4 [10]
00000000: b795 93bd c1f3 34be f926 9c3d 7cc4 033e
00000010: c8ea 0ebe 1032 c43d 8e06 bebd 6135 ea3d
00000020: 64f5 873d 478d ed3d
-0.0720629 -0.1767111 0.07624621 0.12867922 -0.1395675 0.09579861 -0.09278594 0.114359625
0.066386014 0.11599212

conv_block_1.2.weight f4 [10]
00000000: 7170 813f ee96 793f 5bda 7b3f 9ea0 813f
00000010: 7fb7 813f 256e 813f 1539 813f feb5 783f
00000020: 835d 7f3f d7b2 803f
1.0112439 0.97495925 0.9838006 1.0127141 1.0134124 1.0111738 1.0095545 0.971527
0.9975206 1.0054578

conv_block_1.2.bias f4 [10]
00000000: 1ebe f3bb d37d 19bc f249 5a3c b429 68bb
00000010: 8b89 8a3c fe8a 93bb 456b 77bb 48c4 55bb
00000020: 3077 6e3b a6ca a43a
-0.007438435 -0.009368378 0.013323294 -0.0035425248 0.016911289 -0.004502653 -0.0037753147 -0.0032618213
0.003638696 0.0012572601

conv_block_1.2.running_mean f4 [10]
00000000: 5ec0 1fbe 9f3b 883d 826e 4f3e e267 eb3d
00000010: 59c2 7dbd 3ddf eabd a5f0 9d3e 162e 28be
00000020: bf7e 2f3c b679 f33e
-0.15600726 0.06651997 0.20256999 0.114944234 -0.061952922 -0.114683606 0.3084766 -0.1642383
0.010711371 0.47553796

conv_block_1.2.running_var f4 [10]
00000000: 893a 593e 5e91 9a3d 2b0a bc3c 5095 da3c
00000010: b438 be3c 7ee4 b13d 4b65 f53d 933c b53e
00000020: 4b32 1c3e 17d7 363e
0.21213736 0.07547258 0.022954067 0.026682526 0.023220398 0.086861596 0.11982211 0.35397777
0.1525356 0.17855488

conv_block_1.3.weight f4 [10, 10, 3, 3]
00000000: 36f5 fc3c 794d 9a3c 6c06 853d 529b 49bd
00000010: 65ca a839 13bd f33b a21e 943d 704d ab3d
00000020: 0b90 d23d 17fe 933c efcb 013c 1b35 893d
00000030: 56cf 61bb 5967 e53c c65a 723d 19d1 ab3d
00000040: c258 3b3d 0103 893b a864 bdbc 65e9 b73d
00000050: e156 a2bd 35e4 bfbd e7f6 ecbd 4586 2f3d
00000060: ca52 d1bd 21ce 033c 168f 9f3d 10a3 7a3d
00000070: 44a5 303d 9285 97bd c4b9 bf3d 424d 11bd
00000080: e4c0 a13d 58e1 da3c a15f 7d3d b3a8 e93d
00000090: 3d65 97bc 59f0 77bd f41b b4bd 4a0f 00bd
000000a0: 014a 9d3c 1f00 abbc 874a 68bd 786b b93d
000000b0: 93f4 1ebd 27c3 c83d ea84 c3bd f74e 923d
000000c0: acc3 463d 5a61 d1bc 5835 a53d 27c5 3f3d
000000d0: ccec b83d 09b7 823d 99bc 7d3c 0c99 683d
000000e0: e115 b03c eb4f 98bd 4b83 b23c d7d4 4c3d
000000f0: 7eab 71bd 2427 613d 59b6 90bd bc42 d9bb
00000100: 3ba5 b93d bbeb 30bd f5d9 6cbd bf96 d73d
00000110: 2a64 ac3d b352 25bd b7d1 06bd 626f b73d
00000120: 4a30 4a3d 82db 2b3d 675f f2bb f12f 80bd
00000130: a98f a9bd 6abf d2bd f0a2 e6bc 0ce3 91bd
00000140: 3e41 573d cbb2 adbd 7829 2f3d 0ff1 31bd
00000150: 3446 e5bd 5299 22bd 8c26 fc3c 87d3 48bd
00000160: a8ef 35bd de33 6bbd 93b0 543b 7394 c23d
00000170: da18 bfbd 615d c53c a5a4 dfbd 30f7 51bd
00000180: f095 e43c 01ef dabd 2ff1 a13d ccb0 0ebd
00000190: c8bb abba 49ee 63ba e5aa 063d db83 7fbd
000001a0: 87e5 acbd a0be 7c3d bcd5 973c 5475 4b3d
000001b0: e172 3e3d b29a a43d fdc1 933d a10c d2bc
000001c0: e22d d9bb 3e7b 603d 6f6b b5bd 924b 87bd
000001d0: d5dd 273d 7a79 5c3b d33a adbd 7d88 8a3d
000001e0: cac3 2abd 6b50 5a3c f423 c0bc 4741 cebd
000001f0: cf81 b1bd 3b59 01bd 4571 303d 92ba 443d
00000200: 8718 f7bd 7992 8abd dcf8 69bc ea6f d7bd
00000210: edb8 183d 629c a33c 6881 343d 8829 d63c
00000220: b820 b4bd f3c2 cb3a 26a7 ba3d 8297 a33b
00000230: 08c9 babd 0bc5 073d 31fe fcbc 4ae0 5bbd
00000240: 5622 9c3d 32d4 aa3d 0383 533d 825f e4bb
00000250: b86e e3bd f5ad 74bd 34d7 eabd 64b9 30bb
00000260: 459b 5e3c c9ae cc3d 19b7 aa3d 2e5a 79bc
00000270: 1d91 e23c ce61 f13c 5935 8c3b 1f15 553d
00000280: 7ec4 073c df49 d3bd cb1f 91bd 5d38 dfbd
00000290: 886b 4e3d e936 2dbd 1327 bcbd 5b5c 2bbd
000002a0: ce94 18bd a3ba 973d e9aa 1d3c b085 8e3b
000002b0: dcae 1a3d b1a6 91bc e6eb b23d 9759 1d3d
000002c0: f7a4 863c 3645 203b 3388 d0bc 9568 8e3b
000002d0: 168a 803d 7b0d f8bc b8d9 633c 2cca ea3d
000002e0: 2a86 fcbc 4551 96bd feb4 bd3d e0b3 2dbb
000002f0: 0aa8 b63d c1dd 763d dfc7 c0bd bad5 0abd
00000300: 9774 db3d c564 683d d2b3 81bd 3146 e7bc
00000310: 6f0a abbc 2edb 273d 9dac abbd 76ef 683d
00000320: 200e a0bc 91ad 3abd 2592 b33d dc7a b33d
00000330: 2d34 803d 02f1 e03c f6ad ad3d efd2 84bc
00000340: f72d 0e3a 5d21 813d 6027 41bd abe4 0b3d
00000350: 3532 da3d 2a35 8f3d 4765 473d 6922 9fbd
00000360: 59bd 3dbd f107 833d cf65 bebd f85c f73d
00000370: 22a0 bf3d 98e1 af3c c809 7abd 3e3e 583d
00000380: bd73 223d 92e8 aa3c 160c 723d 13ed b43d
00000390: 76bd 41bd 1a3d 50bc 9a4b 88bd 68a7 983d
000003a0: 86d9 f73b c415 603c ae76 943d 8fb3 bc3d
000003b0: a701 6a3c 6424 d73d ad4a b33d 8849 fbbc
000003c0: 0135 01bd a129 273d ea11 c0bc 8368 b4bd
000003d0: 5073 abbd 82f5 663d ac2a f23c 5e04 7abc
000003e0: 5cbb 943d 17d8 a8bd 1016 abbc 4d68 763c
000003f0: 5fa5 753d 83f1 c83c 7388 72bb edc5 85bd
0.030878644 0.01883577 0.064953655 -0.04922039 0.00032194253 0.007438311 0.07232405 0.083643794
0.1028138 0.018065495 0.007922157 0.06699582 -0.0034455857 0.028003382 0.0591686 0.083894916
0.045738943 0.0041812663 -0.023119286 0.08980063 -0.07926727 -0.09369699 -0.115705304 0.04285266
-0.10220869 0.00804475 0.07790963 0.061190665 0.04312636 -0.073985234 0.09361604 -0.03547407
0.07898119 0.02671878 0.061858777 0.1140913 -0.018480891 -0.060531948 -0.08794394 -0.03126458
0.019200327 -0.020874081 -0.0567117 0.09053701 -0.038807463 0.09802847 -0.09546836 0.071439676
0.04852645 -0.025559116 0.08066815 0.04681888 0.090295404 0.063825674 0.01548686 0.056786582
0.021494808 -0.07437118 0.021791121 0.050007667 -0.05900144 0.054968968 -0.0706603 -0.00663027
0.09064718 -0.04319356 -0.057825048 0.105267994 0.08417542 -0.04036207 -0.032914843 0.089567915
0.04936246 0.041957386 -0.0073966268 -0.06259144 -0.08279354 -0.102904156 -0.028153867 -0.07123384
0.052552454 -0.08481368 0.042764157 -0.043442782 -0.11195031 -0.039697 0.0307801 -0.049029853
-0.044418007 -0.05742251 0.003245388 0.09500971 -0.09330912 0.024092378 -0.10920075 -0.051261127
0.027903527 -0.106901176 0.0790733 -0.034836575 -0.0013102228 -0.000869487 0.03287782 -0.062381607
-0.08442216 0.06170523 0.018534534 0.04967244 0.046496276 0.08037318 0.07214735 -0.025640788
-0.006627784 0.054805033 -0.08858382 -0.06606211 0.04098304 0.0033641742 -0.084584855 0.06764314
-0.041690625 0.013324837 -0.023454644 -0.100710444 -0.08667337 -0.031579237 0.043076772 0.04802949
-0.12065225 -0.06766219 -0.014280524 -0.10519393 0.037285734 0.01997203 0.044068724 0.02614285
-0.08795303 0.001554577 0.09113912 0.0049924264 -0.09120375 0.0331469 -0.030882927 -0.053680696
0.076237366 0.08341254 0.051638614 -0.006969393 -0.11105102 -0.05973621 -0.11466828 -0.002696597
0.013586824 0.09994275 0.08335704 -0.015219254 0.027657086 0.029465582 0.0042788205 0.052022096
0.0082865935 -0.10316824 -0.07086142 -0.10899422 0.05039552 -0.042288695 -0.0918714 -0.041836124
-0.037251286 0.07408645 0.009623268 0.004349433 0.037764415 -0.01777968 0.087364 0.038415518
0.016436083 0.0024455315 -0.02545557 0.0043459632 0.06276338 -0.030279865 0.013906889 0.114643425
-0.030825693 -0.0733972 0.09263037 -0.002650492 0.0891877 0.060270075 -0.094131224 -0.03389523
0.10715597 0.056736726 -0.06333126 -0.028231712 -0.020878999 0.04098051 -0.08382533 0.056868993
-0.019537985 -0.045575682 0.08768109 0.08763668 0.06259952 0.027458671 0.08480446 -0.016213862
0.00054237194 0.06305192 -0.04715669 0.03415362 0.106541075 0.06992562 0.04868057 -0.07770235
-0.046323154 0.06397999 -0.09296762 0.12078279 0.09356715 0.021469876 -0.061044484 0.052793734
0.039661158 0.020862851 0.059093557 0.08834281 -0.047299825 -0.01270988 -0.06655045 0.07453805
0.0075637726 0.013677064 0.07249199 0.092139356 0.0142826205 0.10504988 0.08754478 -0.03067471
-0.03154469 0.040811185 -0.023446042 -0.088089965 -0.083716035 0.05638648 0.029561363 -0.01525983
0.072622985 -0.08244341 -0.020884544 0.015039516 0.059972163 0.024529224 -0.00370076 -0.06531892

conv_block_1.3.bias f4 [10]
00000000: 2cd0 613d 9336 933d e3d2 6a3b 3fe2 163d
00000010: f984 42bd b91d b2bd 9bf0 91bd 322b a3bd
00000020: b7a2 a6bb 0cb5 993d
0.05513017 0.071881436 0.0035831265 0.03683686 -0.047490094 -0.086970754 -0.0712597 -0.07967223
-0.005085315 0.07505235

conv_block_1.5.weight f4 [10]
00000000: 5f50 7d3f 401f 803f dfe7 813f d9df 7d3f
00000010: eec0 7f3f a1e9 813f cc06 813f 896b 7f3f
00000020: 287a 803f 9966 7e3f
0.9895076 1.0009537 1.0148886 0.9916969 0.9990376 1.0149423 1.0080199 0.9977346
1.0037279 0.993753

conv_block_1.5.bias f4 [10]
00000000: a081 d33c ab61 3bbc 4f60 33ba dc82 69bc
00000010: 29f1 be3c 9e31 1abc e29a db3a d81b 27bc
00000020: bd30 1cbc d6df 1bbc
0.025818646 -0.01143686 -0.0006842659 -0.014252391 0.023308353 -0.009411244 0.0016754533 -0.01019951
-0.0095331045 -0.009513816

conv_block_1.5.running_mean f4 [10]
00000000: fcf3 1b3e 8f29 2d3e 1299 a53d 42d1 d93d
00000010: 5c28 253e 03d2 ecbc 1cc2 453e 8b04 1c3e
00000020: 6779 413e 97e0 4d3e
0.15229791 0.16910385 0.080858365 0.10635616 0.16128677 -0.028908735 0.19312328 0.15236108
0.18893968 0.20105205

conv_block_1.5.running_var f4 [10]
00000000: 710c 433f ffcf bc3e 2691 993e 6690 bd3e
00000010: b092 103f 6e1c 593e a731 583f fafd 233f
00000020: 8a46 963f c258 c63e
0.7619086 0.36877438 0.29993552 0.3702423 0.5647383 0.21202251 0.84450763 0.6405941
1.1740277 0.38739592

conv_block_1.6.weight f4 [10, 10, 3, 3]
00000000: ce67 98bd 2ce4 37bd bba5 5f3d 420a f9bc
00000010: aea6 5e3d 464b d3bd dbe0 f53c ba5d e63c
00000020: 19de c33d be1f a0bd aa48 ae3c a001 ce3d
00000030: a304 d23d bcdd 97bd 5eab 0b3d 6123 a23d
00000040: c797 b13d c97d 933d 5740 c03d 86b0 a8bd
00000050: ec69 a0bd a016 45bd 5b7e 573d c4ce c9bd
00000060: a7d3 a13d 4d71 ad3d d8d6 f1bc efec 753d
00000070: 84b1 1bbd 2b9e 2ebd 3ebc 7a3d b67c c23d
00000080: 54a8 a4bd 1938 153d c5c6 52bd eb6a 363c
00000090: 99d5 29bd 2579 1d3d 1c84 23bd cd06 433c
000000a0: 4c49 6ebd 33a0 edbc 5e06 e03d fda5 2a3c
000000b0: 6554 e63d 11c8 373c bb24 b33d a4e3 0bbd
000000c0: 6e68 13bd d235 4bbd 0ee9 b5bd dc7d 47bc
000000d0: b63a bd3d ed8a 87bb eac0 da3d f332 31bd
000000e0: 2390 24bd 07c7 f23c 5807 eebc f162 90bd
000000f0: 7a95 f73d 371c 3a3d f16a 96bd f277 72bd
00000100: 1961 c93d 55d6 063d a008 ea3c eb3f 13bb
00000110: ec72 173d e6c1 5d3c 1f1f b43d d053 8039
00000120: 26a0 c83d 3274 753d ec7e ef3c bd24 ddbd
00000130: 906d 6ebc 91c1 963d 22cb df3c 8995 a7bd
00000140: 5e90 433d 18a3 3dbd 69af 723d 63fd 1d3c
00000150: 857a c03d 3fb5 b33d 9904 a0bd 5251 8e3d
00000160: 61d1 a33c d8fe 033c 1443 903d 6368 953d
00000170: 268e a739 bf15 c03d 6a62 a53d 0248 a5bd
00000180: 8d4e 55bd 4e85 1abd 387f 893d a4e2 c63d
00000190: 13de 8cbc c7ab 3cbd 5da1 c6bc a8c4 f03b
000001a0: 04ec c03b 151a 83bd d9a6 a3bd 5cbc 9b3c
000001b0: 39b5 49bd a3ad f4bc fdaa acbd 69ca 0f3d
000001c0: 8606 3f3d ca45 99bd 7367 7b3d d389 c1bd
000001d0: 153b c63b d63d c0bd ad2d c53d 5b95 f13c
000001e0: 9814 233d ed20 9cbd 651b 38bd d03b 8dbd
000001f0: 04a4 ef3c 5d9e c9bb 2df3 373c eef2 823d
00000200: cd83 653b 7ce3 b43d 5372 fd3c 1039 b43b
00000210: dfb7 ccbb 6a97 873d 611a 73bd 476d 30ba
00000220: 03a2 ae3d e7ac b2bd 5681 d8bd 74e9 453d
00000230: 0aad adbb 229f c0bd e65b c0bd 1bab 4f3d
00000240: 8cdd c53c ded7 c83d f818 58bd 25e7 d43d
00000250: c8d5 ffbc 594b 22bc 7e86 0abd f9e1 00bd
00000260: 4365 13bd 6ff8 283c 4811 5abd 63d2 3bbd
00000270: fe96 e537 6fcb ab3c 6eea 803d aba3 ad3d
00000280: 8f32 cf3d de49 453d 3c57 e73d 3b02 9dbd
00000290: 7876 093d 0be8 bd3d 66da 543d a4d6 14bd
000002a0: 2b51 75bd 1641 80bd bfe5 60bd 0d0d 37bd
000002b0: 6b80 19bc ea99 98bd 503b 5d3d 8359 a6bd
000002c0: 7ec7 023d 5d1b 353d 5def bbbd 4c5c 8b3d
000002d0: fc40 debc 4f84 7bbd 1b7f 093d 5920 913d
000002e0: 23f2 1bbd 8aa7 343d 299a 70bd 02b2 98bb
000002f0: 284c 803b 12cc a23d 0161 5b3d 486e b0bd
00000300: a85e 803d ccfb a63d 4024 88bd 3fd2 583d
00000310: 45ba 4a3d f4a8 9ebc 7356 be3d 61ea 183d
00000320: d68d a2bd 6256 81bd 130a 68bc 21cb 95bd
00000330: bcbe 8b3d 9791 99bd eaae d5bd 93fd 5fbd
00000340: e1a9 813c 20bc 2b3d 2f43 423d bb20 acbc
00000350: b674 d8bd 0ede 2b3d 4562 a0bd 868a b33d
00000360: 102a 6fbd 1fc7 b1bd 1551 ce3d e277 3b3a
00000370: 7faf 9abd 1b51 063c feb2 3f3d 4b84 46bc
00000380: a27e 033d 1414 b5bd ae24 d4bc 02ae 243c
00000390: 84a3 db3b 6912 2dbd 488a 18bd 010e c8bd
000003a0: 75f4 073d 302b 1dbc fb25 863d 14fc 643d
000003b0: 0fd6 f23c 2dee 433d 778c 853d 2b7a 8b3d
000003c0: a5f4 3a3d 0f57 9abd dea5 3c3c 8eda 933c
000003d0: 060b 273d 7e5a c73d 5efe 453d bfc7 c43d
000003e0: 0c43 f53c 44e9 793d 17fb 6a3d 5082 c7bc
000003f0: 186a b33d 584a 793c a9bb dbbd ffe3 2c3d
-0.07441674 -0.044895336 0.054601412 -0.0304004 0.054358177 -0.10317092 0.030014446 0.028120864
0.09563846 -0.07818554 0.021274883 0.10058904 0.10254791 -0.07415339 0.034098975 0.07916904
0.08671527 0.07201726 0.09387272 -0.08236794 -0.07832703 -0.04811728 0.052610736 -0.098538905
0.079016976 0.08468876 -0.02952139 0.06004041 -0.03801109 -0.04263131 0.061214678 0.09496443
-0.080399185 0.036430452 -0.051459093 0.01113389 -0.04146347 0.03844561 -0.03992091 0.011903477
-0.05817537 -0.029007053 0.109387144 0.010415551 0.11246566 0.011217133 0.0874724 -0.034152642
-0.035988264 -0.049611874 -0.08882342 -0.012176003 0.09239714 -0.0041364343 0.10681327 -0.04326148
-0.040176522 0.02963592 -0.029056236 -0.070501216 0.12089057 0.045437064 -0.07344616 -0.05919642
0.09832973 0.032919247 0.028568566 -0.0022468518 0.036974832 0.0135349985 0.087949984 0.00024476508
0.09796171 0.059925266 0.029235326 -0.10798023 -0.014552489 0.073611386 0.027318541 -0.081828184
0.0477451 -0.046298116 0.059249315 0.009642932 0.09398369 0.08774804 -0.07813377 0.06949104
0.0199973 0.008056365 0.07044044 0.07295301 0.0003195863 0.09379148 0.080754116 -0.08070375
-0.052076865 -0.037724786 0.06713718 0.09711197 -0.017195737 -0.046062257 -0.024246866 0.007347662
0.0058875103 -0.06401459 -0.07990808 0.019010715 -0.049245093 -0.029867953 -0.08431051 0.035105143
0.04663708 -0.07484014 0.061377954 -0.09450116 0.0060495236 -0.09386794 0.096278526 0.029490164
0.03981456 -0.076234676 -0.044948 -0.06896174 0.029253013 -0.0061529116 0.011227411 0.063939914
0.0035021186 0.08832452 0.030938303 0.0054999664 -0.006247505 0.06620677 -0.05935133 -0.0006730151
0.08526995 -0.08724385 -0.10571544 0.04831834 -0.005300169 -0.09405352 -0.09392528 0.05070029
0.024153493 0.098067984 -0.052758187 0.1039565 -0.031229869 -0.00990566 -0.033819668 -0.031465504
-0.035985243 0.010313137 -0.053239137 -0.045854937 2.7369239e-05 0.020971028 0.06294714 0.08478483
0.10117065 0.04816615 0.112959355 -0.07666441 0.033560246 0.09272774 0.051966093 -0.03633751
-0.05989186 -0.06262414 -0.054906603 -0.04469018 -0.009368996 -0.07451232 0.054011643 -0.08122542
0.03192853 0.04421555 -0.09176514 0.068047136 -0.027130596 -0.061405476 0.033568483 0.07086248
-0.038072716 0.04410509 -0.05874077 -0.004659892 0.0039153285 0.079490796 0.053559307 -0.086147845
0.06268054 0.08153495 -0.06647539 0.05293488 0.049494047 -0.019367673 0.09293833 0.037332896
-0.07937209 -0.06315304 -0.014162558 -0.073141344 0.06823489 -0.07498472 -0.10433753 -0.054685187
0.015828075 0.041927457 0.047427353 -0.0210117 -0.10569136 0.041959815 -0.078312434 0.087666556
-0.058389723 -0.086805575 0.10074059 0.0007151348 -0.075530045 0.008198048 0.04680156 -0.012116502
0.03210319 -0.0884172 -0.025896396 0.010051252 0.006702842 -0.042253885 -0.03724125 -0.09768296
0.033192117 -0.009592816 0.06550213 0.055904463 0.029643087 0.047834564 0.06520932 0.06810411
0.045643467 -0.07536136 0.011514155 0.018048551 0.040781997 0.09734057 0.048338287 0.09608411
0.029939197 0.061013475 0.057368364 -0.02435413 0.0876047 0.015215479 -0.10729153 0.04220962

conv_block_1.6.bias f4 [10]
00000000: 2abf a53c 096d e53c 6c71 61bd 5a71 56bd
00000010: adef 5cbc b509 3b3d a3de 8e3c ff17 833d
00000020: cc95 d7bd 8e20 db3d
0.020232756 0.028006094 -0.05503981 -0.052354194 -0.0134848775 0.045663554 0.017440146 0.06401061
-0.10526618 0.10699569

conv_block_1.8.weight f4 [10]
00000000: c123 803f 0b16 7f3f d8ce 803f b52a 7d3f
00000010: 6235 7e3f 796a 803f f4b3 813f 5e8f 7e3f
00000020: d521 803f 30ee 7e3f
1.0010911 0.9964301 1.0063124 0.9889329 0.99300206 1.0032493 1.0133042 0.9943751
1.0010325 0.99582195

conv_block_1.8.bias f4 [10]
00000000: 1acb d6bc 5faa a5bc a186 e3bc dab8 43bc
00000010: e868 f13c e287 c1bc 0114 6cbc 5622 3dbc
00000020: 58c4 5bbc 9488 513c
-0.026219893 -0.02022284 -0.027774157 -0.0119459275 0.029468969 -0.023624364 -0.014409066 -0.011543831
-0.013413511 0.01278891

conv_block_1.8.running_mean f4 [10]
00000000: 339b f03d b70e e93d fbad 263e d091 103d
00000010: 089e a53d eaca ce3d ec76 7b3e 7cce 3c3e
00000020: 5b2f 373e 8a35 973e
0.11748352 0.1137976 0.16277306 0.035295308 0.08086783 0.100972965 0.24557084 0.18438143
0.17889158 0.29533035

conv_block_1.8.running_var f4 [10]
00000000: b66f e83e 0e2f 563e 0717 403f 41c8 8b3e
00000010: 2aba 2a3f 088c b33e 8b60 7b3f 3de6 1e3f
00000020: fba3 883f 6dbb 803f
0.4539773 0.20916387 0.75035137 0.2730122 0.66690314 0.35067773 0.9819419 0.62070066
1.0675043 1.0057198

conv_block_2.0.weight f4 [10, 10, 3, 3]
00000000: 2a37 f4bd 11c1 bb3c 4d54 883d 684e 193d
00000010: e61e 68b9 3734 85bd 0f2a 99bd ace0 b9bd
00000020: 9442 93bd 99f1 dbbd 7d64 743d 5bef a5bd
00000030: c031 9dbd 6fe0 80bb 9986 83bd 32a8 2d3d
00000040: 6e8c 7abc f561 1cbd 2c0f 61bd 363c 8dbd
00000050: 0f23 bd3d d65e a83b 861e 02bd 9558 cebd
00000060: e59d c4bc 9e4b ccbd 377b 46bd 08b4 733c
00000070: c549 9f3d f821 a3bd ee94 6abd adec 963c
00000080: ff11 023d 6a11 f23c 4ebd 5e3d ad02 52bc
00000090: fc9d cbbd cb9e b33d cf07 79bd 573c 20bd
000000a0: 3789 8b3d e6df 463d bdfe 0d3d e10a 96bd
000000b0: fafa 6dbc ffb0 a2bc f865 19bd c36d bf3d
000000c0: 86e4 6d3b 6ad8 543d faf6 80bc 088c f63c
000000d0: c77a 82bd c87b 36bd 1969 953b 3be1 bdbb
000000e0: 3d65 43bb 6dd4 53bd f67b c7bd a8d0 de3c
000000f0: bafc d6bd d714 063d d495 8abd 72b5 473d
00000100: f3a1 bc3d ef81 16bd e135 a9bc 7ba0 0ebd
00000110: d857 f63c c488 853a 9f85 25bd 6d01 bd3c
00000120: 51ca c8bd 069f 83bd 0e38 32bc 525b b03c
00000130: cb26 3ebd d756 a43c 57b2 88bd a80e a7bd
00000140: a1e9 efba 878b 563d 0ce7 49bd 898f 513b
00000150: 6f9f d9bd fe91 2f3d bdb0 bbbc e180 aa3b
00000160: e50d a9bc 800e d7bd a1d4 91bd ca18 f4bc
00000170: 5bed bcbc 2a14 b3bd 37c5 423d 6e13 033d
00000180: 5e57 7e3d 0d56 803c 54f1 fc3c 5e0f a2bd
00000190: e363 17bd 0724 c73c b2ee bfbd 2d4b c93d
000001a0: c453 ed3d 04a2 53bc 4736 42bd bf28 ca3c
000001b0: 0f6c 67bb 6151 67bc 822e 963d 2e1c a53c
000001c0: 67d0 673d 5c78 a03d 23c3 3ebd b2d5 17bd
000001d0: 7476 7f3d 66b9 8d3c f51a 3c3d 1659 693d
000001e0: 8fa6 d2bd d98e 663d bda4 563d d812 74bd
000001f0: 6cb5 5b3d 91b0 d6b9 f54e acbd 3845 4ebd
00000200: 1a4f f3bd ec0e 5dbd fceb 463c da67 073d
00000210: 88ad 27bc c296 8cbd e6ca d43d 109c eebd
00000220: 0bbc 2b3d 235f 863d cbeb 34bd a1d4 a1bc
00000230: ca5e afbd 7d98 86bd 2520 d73d a186 283c
00000240: c2c1 29bc 1d59 53bd fc48 ad3d 2ab9 35bc
00000250: ed19 713d 15d1 c73d 626b 79bd 5e0b 6abd
00000260: e176 0f3b 37dd 9f3c cff7 5cbd 57e7 663d
00000270: b6a3 973c a889 903d ee19 1a3d 3a0e 503d
00000280: 3a79 d83c 519e 923d 4898 91bd 4dbd a73c
00000290: a65a d4bc 4bf1 95bc ae36 38bd 1679 6d3d
000002a0: 32a0 e13d 6c08 c93d 07f6 83bd 6168 23bc
000002b0: 5937 a93a 0b5a 893b 925c 0b3d 4932 463a
000002c0: 2b41 5ebc 188b 0c3d 6b56 17bd fe82 a13d
000002d0: 011e 903d 013f 9cb9 fdac 15bd 6886 39bd
000002e0: 35d2 b93d ba4b 883d 7cf6 053d 79f8 cabd
000002f0: 20ee 8cbd d6f8 b2bd 6609 edbc d14f b93c
00000300: 9caf 9abb 61a7 81bd 7b65 7cbc d403 173d
00000310: 8bec 4fbd d4c9 b7bd c9ec 9cbd ef18 d2bd
00000320: 9e42 4f3d e8f0 c1bc 228d 89bd b034 c5bb
00000330: 6db5 1cbd ba26 8dbd 4b08 b9bd 3a6e b9bd
00000340: 607d 423c d9f1 26bd aa4e 21bc 5d6a 8b3d
00000350: 1158 9ebd b975 253d 4b50 433d 4bfa 7b3d
00000360: 26c6 bb3c 970b 7f3d 3b86 1cbd 1aea 83bc
00000370: 4e69 573d 8eb6 d73d 5263 0cbc 85a8 d8bb
00000380: 4fb6 ab3d 186f 81bd be18 0ebb 8d4d 85bd
00000390: 07b4 ccbd bdc6 003d 5174 ccbd a3c6 4cbb
000003a0: fe16 65bc 6516 63bd 5cd7 023d c1c2 803d
000003b0: a8f3 693d ea0e a53d 7d64 2fbd 89ae babd
000003c0: ea23 b7bd 2cb4 04bd 99d6 e33b e041 973c
000003d0: 4653 0cbd 0905 b1bd 8905 34bd 8c74 603d
000003e0: ebc9 78bd 02eb 273d 248b a23d 190e 1fbd
000003f0: aa77 05bd 874d 063d bdfb b4bd 1081 8fbc
-0.11924584 0.02291921 0.06656704 0.03742829 -0.00022136755 -0.065041 -0.07478725 -0.09076056
-0.07190433 -0.107394405 0.059666146 -0.08102294 -0.07675505 -0.0039330046 -0.06422157 0.04239673
-0.01529227 -0.038179357 -0.05494611 -0.0689625 0.092352025 0.0051382584 -0.03176739 -0.100754894
-0.024001071 -0.0997536 -0.04845735 0.014874466 0.07777742 -0.079654634 -0.057270937 0.018423403
0.031755444 0.02954932 0.054379754 -0.012818021 -0.099422425 0.08770522 -0.060798462 -0.039120045
0.06813281 0.04855337 0.034666765 -0.07326294 -0.0145251695 -0.019859789 -0.03745076 0.09347107
0.003629954 0.0519642 -0.015742768 0.030096069 -0.06371074 -0.04455164 0.0045596478 -0.005794672
-0.0029814981 -0.051716257 -0.097404405 0.027199104 -0.104974225 0.03273472 -0.06766859 0.048757024
0.09210577 -0.036745008 -0.020655574 -0.034821015 0.030071184 0.0010187854 -0.040410634 0.023071969
-0.09804214 -0.06426816 -0.010877622 0.02152792 -0.046423715 0.02006094 -0.066746406 -0.08157092
-0.001830388 0.052379157 -0.04929261 0.0031976423 -0.10626113 0.04286384 -0.022911424 0.005203352
-0.020636508 -0.105008125 -0.07120634 -0.029796977 -0.023062399 -0.0874408 0.04755136 0.03200095
0.06209504 0.015666032 0.030876793 -0.07913087 -0.036960494 0.024309171 -0.093716994 0.09828792
0.11588243 -0.0129170455 -0.047415044 0.024677632 -0.003531221 -0.014118523 0.073330894 0.020155039
0.056595232 0.07835457 -0.046572816 -0.03706903 0.062368825 0.017300319 0.045924146 0.056969725
-0.10285675 0.056288574 0.0524032 -0.059588283 0.053639814 -0.00040948813 -0.08413497 -0.05035898
-0.11880322 -0.05396931 0.012141224 0.033058025 -0.010234244 -0.06864692 0.10390262 -0.1165086
0.04192738 0.06561115 -0.044170182 -0.01975471 -0.085630015 -0.065720536 0.10504178 0.010286004
-0.010361137 -0.051598657 0.08461186 -0.01109151 0.058862615 0.09756676 -0.060893424 -0.057139747
0.0021890926 0.019514663 -0.053947266 0.056372967 0.01851068 0.07057506 0.037622385 0.050794818
0.026424993 0.07159103 -0.071091235 0.020476008 -0.02592213 -0.018303534 -0.04497402 0.057976805
0.11016883 0.098160595 -0.0644341 -0.009973616 0.0012910172 0.004191642 0.03402383 0.00075605937
-0.013565342 0.034312338 -0.03694765 0.07886313 0.07036973 -0.0002980158 -0.036541928 -0.045294195
0.09073297 0.06655069 0.03270577 -0.09910674 -0.06881356 -0.08738868 -0.028935146 0.022621067
-0.0047206413 -0.06330753 -0.015405054 0.036868885 -0.050762694 -0.089740425 -0.07662351 -0.10258662
0.05060064 -0.023674443 -0.06716372 -0.0060182437 -0.03825896 -0.06892152 -0.09034785 -0.09054227
0.011870712 -0.040757988 -0.009845415 0.068073966 -0.07731641 0.040395472 0.047683995 0.061517995
0.022921633 0.062266912 -0.03821395 -0.01610284 0.05259066 0.105328664 -0.008568602 -0.006611886
0.08384382 -0.063200176 -0.0021682228 -0.06508932 -0.09995275 0.03143953 -0.09983123 -0.0031246326
-0.013982533 -0.05544128 0.031943664 0.06287146 0.057117134 0.08059485 -0.042820442 -0.09115321
-0.08942397 -0.032398388 0.0069530723 0.018464029 -0.034259103 -0.086435385 -0.04395059 0.054798648
-0.06073944 0.040995605 0.07936695 -0.038831804 -0.032584824 0.03278878 -0.08837078 -0.017517596

conv_block_2.0.bias f4 [10]
00000000: a098 a6bc 2b19 99bd f8ca ed3c 43ed 5abd
00000010: d4e9 02bc ad4a 9f3b 9394 a13d 807c a7bd
00000020: 2cd6 c03b e4b7 68bd
-0.02033645 -0.074755035 0.029027447 -0.053448927 -0.007990319 0.004861197 0.078896664 -0.08178043
0.0058849063 -0.056815997

conv_block_2.2.weight f4 [10]
00000000: 9396 7e3f feff 803f f6a3 803f bdf7 813f
00000010: 71a5 7a3f d04a 7f3f 4912 813f dda4 7d3f
00000020: e92b 803f 40e0 7d3f
0.9944851 1.0078123 1.0050037 1.0153729 0.97908694 0.9972353 1.0083705 0.99079686
1.00134 0.99170303

conv_block_2.2.bias f4 [10]
00000000: 8375 55bc 656b 1dbc b913 853c 7675 bdbb
00000010: 9f85 00bc 9d9e a83c bfe2 023c 8c28 1ebc
00000020: 4998 093b c98c 0c3c
-0.013028505 -0.009608124 0.016244756 -0.0057818247 -0.007844358 0.020583445 0.007988631 -0.009653222
0.002099531 0.008578488

conv_block_2.2.running_mean f4 [10]
00000000: 1f78 e13d d337 433b 93db 353e 0bbe db3c
00000010: 43f1 e13d 7d84 283e 7b22 563e cc57 dfbc
00000020: 954e 4a3d 265b 333e
0.110092394 0.0029787912 0.17759542 0.026824018 0.11032345 0.1645679 0.20911591 -0.027263544
0.049391348 0.17515239

conv_block_2.2.running_var f4 [10]
00000000: f480 0c3f 0311 203e 0a58 f13e a25a c13e
00000010: 4e6e cc3e 2491 293f 29f1 3e3f 82e8 053e
00000020: 495c 503e 0c37 493f
0.54884267 0.1563149 0.4713748 0.3776446 0.39927906 0.6623709 0.7458673 0.13076976
0.20347704 0.7859962

conv_block_2.3.weight f4 [10, 10, 3, 3]
00000000: fdc6 b5bd 5707 2abd b826 a3bd ff5d bebd
00000010: 8eea 393d e74a 8dbd 948e 94bd 809d a0bd
00000020: 94fd 0ebd 7eff cebd 24a5 96bd 82df 06bd
00000030: e97c 8dbd a013 a73d 9764 5ebd 9014 54bd
00000040: 9602 163d 4450 3b3d b81d 343d 9e17 cd3b
00000050: 0c05 a1bd fefa 94bd e8b2 623c e598 153d
00000060: 1c71 553c 3af3 c9bd 00c7 a0bc 50c8 85bd
00000070: b565 67bc 4364 a5bc 2a1f ab3c 617a 093d
00000080: 33b2 86bd ce08 783d 7ae6 5fbc 4759 95bd
00000090: ce53 c03d 04e6 21bd 101e 1fbd 8c99 323c
000000a0: 4017 353d 41f7 7bbb b931 e93c faec 92bd
000000b0: 7427 103c 43e1 da3c c38e b53c 1d6b 90bd
000000c0: 0b4e 9e3d c0b7 113d 2797 b3bd 57ff fb3b
000000d0: fd6f ce3d e055 d93d 5d15 023c 8f75 773c
000000e0: 3494 1c3d d631 dfbd b0a5 333b 46d0 13bd
000000f0: 12fb d0bd dc04 45bc 204a 9bbc aa82 d83d
00000100: ff6d af3d a22c 48bc 1358 a63d 504b c2bd
00000110: 9328 973c 10dd a9bd 3c4d 933c 23fc 5cbd
00000120: 5a25 453c 42dc e43c 2ad2 fa3c c28d bfbc
00000130: 62a8 40bd 7be5 a7bd 123c e638 37f0 b63c
00000140: b7bc e53c a76b f23b 2710 a33d 2733 6a3d
00000150: 4a93 96bd 017d 25bd a347 aabb d02b 333d
00000160: 45d4 f5bd 2433 febc 0455 87bc e538 323d
00000170: 1c14 19bd 3b11 9ebd b385 cd3d caf5 56bd
00000180: 52db 61bd 3be3 72bd 9fe7 1b3d e474 993d
00000190: 06b4 e6bc 198e b03d 09c2 c9bd fb35 6bbc
000001a0: 488e d33d 5bfa 5bbd 522f 68bd 7dcd 33bd
000001b0: d94c 973c 755b cbbd 498e 2e3d 36c2 a1bd
000001c0: 8ebb 49bd 5ee2 073b 6074 e2bd 81c8 2cbb
000001d0: 8290 df3c 9ccd 403d 0861 63bd f9ab bfbd
000001e0: d337 ce3d 1623 d03d 62ca 8e3d 0f3f d8bc
000001f0: 94c3 973d b06d e73c bacf 943d ae85 e03c
00000200: 4a0d 5337 c1a8 a43d 36b5 923d cdc2 84bd
00000210: c784 4abd 3ed1 ad3d abf9 52bc 69b5 85bd
00000220: af0c 973d 99b1 5c3d 280b b83c 00f5 4b3d
00000230: 187b a1bd e65b df3c cd27 99bd 9660 5dbd
00000240: 43d3 39bc b23a aa3c 77e7 52bd b5ee 3bbd
00000250: 6cb6 34bd 4344 593d f84e 7ebd d429 463d
00000260: 138a e93c 5e6f 95bc 9d97 a63d f732 bcbd
00000270: 0dba ccbd 7850 b8bb e3d5 a33c 8524 9abd
00000280: 8d00 1dbc 2e43 7f3d b746 063d 1501 c4bc
00000290: a847 cabc 5461 243d e1fd 993d e134 a83d
000002a0: fe47 db3d a48d 83bc 49e3 cc3d 1d5c e1bc
000002b0: 07d5 c7bd 744d 9cbd f1d5 b0bd 519c 113d
000002c0: 750d ea3c dec1 9dbc 0398 88bd b997 bcbd
000002d0: da03 4abc 2030 803d fd02 e53d 5f6c 32bd
000002e0: 2392 a13d 0646 f2bc 13a8 9f3d c650 0dbd
000002f0: 9aee 083d 284e b2bc 8920 b2bd f6f2 993d
00000300: bf7b a13d 48b4 98bb 3f43 a23d 1d32 8abc
00000310: 0ef4 5ebc 4739 60bd a5d1 993c 7239 d03d
00000320: 045c 7c3c bc71 65bd fc11 dc3a 72c0 413c
00000330: fa94 79bd 5472 46bd efe4 abbc 73c2 973d
00000340: 3ef1 b5bd 716c 423c 3e7e 60bd 9267 f1bc
00000350: e9ef c43d b06e bf3d 5601 883d f380 aa3c
00000360: 79b9 bcbc eed8 79bd 66c2 96bd fa89 01bd
00000370: 8b32 803d 96c6 3ebd 6d0b 5e3c d53f a1bd
00000380: 1c68 f23d df4f 0a3d 5f3b c7bd c85c c53d
00000390: 7130 993d 095a bd3d eafe 9b3d 6b19 edbd
000003a0: 5cde a1bd 5a57 c1bc 8f50 e33c 7104 c93d
000003b0: 2cac 643c 7f16 923d 4005 59bd 6dd2 94bc
000003c0: 057a a13d 147d 3f3d 1e4a 17bd 97eb 9fbd
000003d0: f106 e4bd 166a 96bd 5050 9bbc d85e a73d
000003e0: 6fa7 ef3c eb12 17bd d60b a43c c747 69bd
000003f0: d60e d5bd a767 4a3d 046f a0bc 26b5 a13c
-0.08875845 -0.041510906 -0.079663694 -0.09295272 0.045389704 -0.06899052 -0.07253757 -0.07842541
-0.0349098 -0.10107325 -0.07355717 -0.032927997 -0.0690859 0.0815804 -0.05429515 -0.051777422
0.03662356 0.045730844 0.043973655 0.006258919 -0.07862291 -0.072744355 0.0138366 0.036522765
0.013027456 -0.09860845 -0.01962614 -0.06532347 -0.01412337 -0.02018941 0.020888884 0.033563975
-0.065769576 0.06055527 -0.01366579 -0.07292419 0.093909845 -0.039526 -0.03884703 0.010900866
0.044211626 -0.0038446935 0.028466092 -0.07174106 0.008798469 0.026718741 0.0221628 -0.0705168
0.07729729 0.03557563 -0.087690644 0.007690351 0.10079954 0.106120825 0.007939664 0.015103712
0.038227275 -0.10898177 0.002741199 -0.036087297 -0.10204138 -0.012025084 -0.018956244 0.10571797
0.08565902 -0.012217673 0.081222676 -0.09487021 0.018451964 -0.082941175 0.017981164 -0.053951394
0.012032831 0.027937058 0.030617792 -0.023383025 -0.047035582 -0.08198067 0.000109784436 0.02233134
0.028044088 0.007398087 0.07962065 0.05717769 -0.07352312 -0.040402416 -0.005196528 0.043742955
-0.12003378 -0.031030245 -0.01652003 0.04351129 -0.037372693 -0.0771813 0.10035267 -0.052480496
-0.0551408 -0.059298735 0.038062688 0.07492998 -0.028162014 0.08620853 -0.098514624 -0.014356132
0.10329872 -0.053705554 -0.056685753 -0.04389714 0.018469261 -0.099295534 0.042616162 -0.07898371
-0.04925113 0.002073429 -0.11057353 -0.0026364627 0.027290586 0.047071084 -0.055512458 -0.09358973
0.100692414 0.10162942 0.06972195 -0.026397256 0.074103504 0.028250545 0.07266183 0.027407493
1.2579674e-05 0.0804 0.071634695 -0.06482468 -0.049443033 0.084871754 -0.012876908 -0.06528742
0.07375466 0.053880308 0.022466257 0.049794197 -0.078848064 0.0272655 -0.074782945 -0.05404719
-0.011341873 0.020779941 -0.051490273 -0.045881946 -0.044119284 0.053043615 -0.06208703 0.048379734
0.028508222 -0.01824158 0.08134387 -0.09189408 -0.09996424 -0.005624827 0.01999945 -0.07526497
-0.009582651 0.062319927 0.032782283 -0.023926297 -0.024692371 0.04013188 0.07519127 0.08213211
0.10707091 -0.01605875 0.10004289 -0.027509743 -0.097574286 -0.076319605 -0.08634556 0.035549466
0.02857087 -0.019257482 -0.06669619 -0.09208626 -0.01233002 0.06259179 0.111822106 -0.043560382
0.078892015 -0.029574405 0.077957295 -0.03450086 0.033430673 -0.021765783 -0.08697612 0.07517044
0.07884931 -0.004660163 0.079229824 -0.016869599 -0.013607992 -0.054742124 0.018776724 0.10167207
0.015402798 -0.05601667 0.0016790028 0.011825668 -0.06093309 -0.048448876 -0.020983187 0.07410135
-0.08883904 0.011866675 -0.054807894 -0.029468331 0.09616072 0.09347284 0.0664088 0.02081344
-0.023037659 -0.060997896 -0.07361297 -0.031625725 0.0625964 -0.046576105 0.013552529 -0.07873503
0.118362635 0.033767577 -0.09728121 0.09636837 0.074799426 0.092456885 0.076169804 -0.11577114
-0.0790374 -0.023601223 0.027748374 0.098153 0.013957065 0.07133197 -0.052983522 -0.018166745
0.078846015 0.046750143 -0.036935918 -0.07808607 -0.111341365 -0.07344453 -0.018959194 0.08172387
0.029254643 -0.036883276 0.020025175 -0.056953218 -0.1040322 0.049415257 -0.019584186 0.019739699

conv_block_2.3.bias f4 [10]
00000000: 0846 33bb 80e5 9f3c 40eb 893c a60b 7d3d
00000010: 2104 c43b de0f 803c bed3 7ebd 1704 51bd
00000020: d476 d0bd 6cc0 a13c
-0.0027354974 0.019518614 0.016835809 0.061778687 0.0059819375 0.015632566 -0.06221365 -0.05102929
-0.10178915 0.019745074

conv_block_2.5.weight f4 [10]
00000000: d9e2 813f 8266 803f 52bd 803f f432 823f
00000010: 16c2 7c3f dd30 803f 2981 803f 4fda 7e3f
00000020: fc3d 7b3f 407b 7d3f
1.0147353 1.0031283 1.0057776 1.01718 0.9873365 1.0014912 1.0039417 0.9955186
0.98141456 0.9901619

conv_block_2.5.bias f4 [10]
00000000: f891 bcbb 8ffe ba3b d9a8 d53b af2f 4f3c
00000010: ec7e a1bc 5f4d 6e3c 44a3 97ba 4664 d13c
00000020: 977e 553c 3773 a83c
-0.0057547055 0.0057066153 0.0065203723 0.012645646 -0.019713841 0.014544814 -0.0011569043 0.02556051
0.01303067 0.020562751

conv_block_2.5.running_mean f4 [10]
00000000: 02ca 1e3e a8d1 b33d b3f4 b73d 9178 2a3e
00000010: a309 2b3e 6522 0a3e 8391 cbba b8b6 a23d
00000020: 972c 993d 75cd 193e
0.15506747 0.08780223 0.089822195 0.16647555 0.16702895 0.13489683 -0.0015531037 0.07945007
0.07479208 0.15019782

conv_block_2.5.running_var f4 [10]
00000000: 744b 0c3f 70b1 683e 0803 8a3e 1449 e43e
00000010: 36c1 223f 18cb 053f 1749 183e 30c9 e83e
00000020: c6fe 053f 95ed 033f
0.5480263 0.22723937 0.26955438 0.44587004 0.63576066 0.5226302 0.14871632 0.45465994
0.5234188 0.51534396

conv_block_2.6.weight f4 [10, 10, 3, 3]
00000000: e415 3a3c 2c88 593d 8c5f 15bd cce9 c33d
00000010: b891 feba aae8 e03d 27f0 4e3d 2fcf 6abd
00000020: 0f3e 9b3d 7ae4 dabc e0de 39bc 8be5 3ebd
00000030: 7f93 a93c 96d4 8cbc d5ce 32bd c83d 9a3b
00000040: dd26 c03d d5d8 4abd eba7 433d b9fc a9bd
00000050: 12ed 6dbd 534c 95bc 100e 96bd f899 b53d
00000060: ce84 953d e011 98bd c2c1 803d 79cb b6bd
00000070: 48ed d63d a3cc 3a3d c5e1 9a3d 2570 8ebd
00000080: 971c 143c e05a 93bd 81c5 e7bd dae0 00be
00000090: 0b9e a6bb dec3 933d a8d3 7ebd bc60 b53d
000000a0: 4638 863d 1420 92bd 658b a63d 109e 803d
000000b0: 7e12 ad3d d262 b93c 35ed bbbd 0920 10bd
000000c0: cda8 80bd a4a5 92bd 146c 62bb 1beb a6bd
000000d0: f80f cdbd a0a3 153d 15a8 923d f60e 5e3d
000000e0: 2f72 75bd b7cb 9ebd 6ea9 253d 51b0 793d
000000f0: 2bbb dabc 674e ac3d a9c5 e83d 0cf1 53bd
00000100: 3766 b83d f528 343c 8d45 973c db4b 8f3d
00000110: 87b8 9bbd 9af2 97bd 73d5 bfbd 573e 04bd
00000120: 0d44 873d dbf5 2dbd 15a2 9d3d a4c2 83bd
00000130: d74f 9039 bf2b e43d 9309 8fbd 80cc 0f3d
00000140: 5783 713c 08ed 5cbd b0d5 8dbd f586 44bd
00000150: 4c98 05bc 85e2 81bc 061a 1d3d 992e 323d
00000160: b5ee 933d 32ca 4a3c 1be0 72bc ba51 983d
00000170: 6007 88bd e0ad d83d 3840 8b3b 7592 2fbd
00000180: ec35 183d a9c8 883d 003e a83d 8d51 42bd
00000190: cb5c 93bd 91e0 71ba 6a2b 663d 1e74 d03d
000001a0: ff35 b83d 4cd5 cc3c 8b2a 8ebc 91a9 ae3d
000001b0: 5c91 a63a a4e9 5bbc df9d 1abd 711c 913d
000001c0: 4357 f53c bc48 a6bd ddf0 78bd defc 183b
000001d0: 7f3c b6bd 1470 ab3d 9abb 823d 0444 b43d
000001e0: b032 11bd 1919 3b3d f775 cc3d 9570 a6bc
000001f0: d7ef a0bb 9591 19bd 8db0 82bd 58e0 a83d
00000200: e487 533d 1d4f 93bd 6d15 a53b 30cd e43c
00000210: 9a9e 2e3d ac03 2b3d f9df cb3d ea05 c1bc
00000220: b6b5 113d 925b 8f3c 2868 cdbd f9bf 3bbd
00000230: 0201 91bb 486f 3b3c bc25 0bbd 9d64 9f3c
00000240: 3798 223d ecf7 38bd 4858 053d ae55 ad3d
00000250: d816 3dbd 9a66 a73c f98d b5bd f0f1 e53a
00000260: 4d04 01be 5516 2ebd 1526 d03d 85d8 d63b
00000270: 2497 cb3d 5c0f e33c 99ef 8cbd e5e5 adbd
00000280: d8f4 c3bc c42d 563c d9a3 353d b28c 17bc
00000290: 2385 9fbd 0a23 873d f508 c1bd 0096 89bd
000002a0: 1cdc 0fbd 2dec 6fbd 5303 92bd d8f5 f4bc
000002b0: 153d 393d 8bfc b13c b35f dcbd e5cd ae3d
000002c0: c5be b5bd 6e9c e1bc e29d 193c b75e f9bc
000002d0: 77ec 5c3d ea37 51bd 7d22 943c 1d89 c4bc
000002e0: 1735 34bd 0e8b e8bd d326 503d 5327 c93b
000002f0: 63d5 2bbc f8ae 3f3d d718 793d 7a77 d2bd
00000300: 2885 a7bd 1c37 94bd 2bde 44bb 4fa0 e6bd
00000310: a775 bc3b 4052 96bd 1233 3d3d 7252 2fbd
00000320: 7c88 bf3c 6b14 4e3d 7c6a d13d 8cfd 7f3d
00000330: 1d32 2dbd 7b67 be3d 3f64 a6bd f68a 0c3d
00000340: c1dc 673d 0c36 84bd eb73 14bc 0e41 fc3c
00000350: 996e d13d cade 88bd 37a6 65bd 6358 4bbc
00000360: 9dc9 a1bd 7245 3e3c 74a9 5ebc 10bc bf3d
00000370: c34d 95bc b035 8d3c e3d2 913d 4585 433d
00000380: 0e97 583d 7c57 91bd 723c af3d a0f2 dd3d
00000390: 4461 493d 070c acbd 7f3d 823d e337 cb3d
000003a0: 4242 38bd 1c77 d53d 948a 033b 48e3 b8bd
000003b0: dbe0 883c 33a9 ecbb 30c7 333d 8c9e b5bd
000003c0: b67c 7a3c 7412 723d f28f 703d b36d 923d
000003d0: 5f01 8dbc 130c 0bbd 4ecd ad3d 64f0 133c
000003e0: 0cce 243c df7b 81bd 62b5 c2bb a6f7 693d
000003f0: 7c97 8abb 7db4 123d 9655 c9bd bc51 01bc
0.011357758 0.05310838 -0.036468074 0.095660776 -0.001942209 0.10981877 0.050521996 -0.057326492
0.07580196 -0.026720274 -0.011344641 -0.046605628 0.020700214 -0.017191213 -0.04365428 0.004707072
0.093824126 -0.049523193 0.04776756 -0.08300156 -0.058087416 -0.01822487 -0.07326901 0.08867258
0.07300721 -0.074252844 0.06286956 -0.08925528 0.104944766 0.045605313 0.07562593 -0.069549836
0.0090400195 -0.071950674 -0.11316968 -0.12585774 -0.005084758 0.07215093 -0.06221357 0.08856341
0.06553702 -0.07135025 0.08132056 0.06280148 0.08450793 0.022630129 -0.09176103 -0.0351868
-0.06282196 -0.071605 -0.0034549283 -0.081503116 -0.100128114 0.036532998 0.07160965 0.054213487
-0.059923347 -0.07753699 0.040444784 0.060959164 -0.026700577 0.084133916 0.11365826 -0.051743552
0.09003871 0.010996093 0.018465782 0.0699689 -0.07603555 -0.074193195 -0.09366884 -0.032286014
0.066047765 -0.042470794 0.0769693 -0.06433609 0.00027525306 0.111411564 -0.06984248 0.035107136
0.0147407865 -0.053936988 -0.06925523 -0.047980268 -0.008153986 -0.015855083 0.038354896 0.04350147
0.07223264 0.012377309 -0.014823939 0.07437463 -0.06642032 0.10580039 0.004249599 -0.04286428
0.0371608 0.06678898 0.082149506 -0.047441054 -0.07195433 -0.00092268834 0.056193747 0.101783976
0.08994674 0.025004052 -0.01735427 0.08528436 0.0012708115 -0.0134224035 -0.037748214 0.07085503
0.029948836 -0.08119342 -0.06077658 0.002334408 -0.088982575 0.083709866 0.063834384 0.088020355
-0.03544873 0.045678232 0.099834375 -0.020317355 -0.0049114036 -0.037492353 -0.06381331 0.08245915
0.051643267 -0.07192824 0.0050379545 0.027929872 0.042631723 0.04175155 0.09954829 -0.02356239
0.035573684 0.017499719 -0.10029632 -0.045837376 -0.004425169 0.011440106 -0.033971533 0.019457156
0.039695945 -0.04515831 0.032554895 0.08463608 -0.046164364 0.020434666 -0.0886497 0.0017543416
-0.12599297 -0.042501766 0.101635136 0.006556573 0.09940937 0.027717285 -0.06881637 -0.084911145
-0.023920462 0.013072435 0.04434571 -0.009249853 -0.07789066 0.0659848 -0.094255365 -0.06718063
-0.035122022 -0.058574844 -0.0712954 -0.029902384 0.045224268 0.021726867 -0.10760441 0.08535365
-0.08874277 -0.027540412 0.009376021 -0.030440671 0.053936448 -0.051078714 0.018082852 -0.023991162
-0.043995943 -0.113546476 0.050818276 0.006138721 -0.010487887 0.046797723 0.060814705 -0.102766946
-0.081796944 -0.07237074 -0.003003965 -0.11261045 0.00575133 -0.07339907 0.046191283 -0.042803235
0.02338051 0.05031244 0.102253884 0.06249766 -0.04228412 0.09297081 -0.08124589 0.03431221
0.05660701 -0.06455621 -0.00906084 0.03079274 0.10226173 -0.06683119 -0.056066718 -0.01241121
-0.07899783 0.011613237 -0.013590205 0.09362042 -0.018225556 0.017237514 0.071203016 0.047734518
0.052878432 -0.070967644 0.08556451 0.10837293 0.049165025 -0.084007315 0.06359386 0.09922769
-0.044985063 0.10423109 0.0020071613 -0.090277255 0.016708782 -0.0072223186 0.043891132 -0.08868131
0.0152885225 0.05909963 0.058731027 0.0714983 -0.017212568 -0.03394706 0.084864244 0.009029482
0.010058891 -0.06322455 -0.0059420327 0.05712094 -0.004229484 0.03581666 -0.09830777 -0.007893022

conv_block_2.6.bias f4 [10]
00000000: 781c 1fbd 7393 debd 5357 cfbd cab1 073c
00000010: 9c43 1a3d d612 b73c 05d5 78bd b116 a93d
00000020: e3f8 793b 499e 1cbc
-0.03884551 -0.108679675 -0.10124078 0.008282134 0.037662134 0.022347849 -0.060750026 0.08256281
0.0038142733 -0.0095592225

conv_block_2.8.weight f4 [10]
00000000: 004c 833f 5cf0 803f e829 7a3f 24aa 803f
00000010: f8f0 7f3f 94e8 7e3f da91 793f 7c69 833f
00000020: 6c60 803f 4ec1 7d3f
1.0257568 1.0073352 0.97720194 1.0051923 0.99977064 0.99573636 0.97488177 1.0266566
1.0029426 0.99123085

conv_block_2.8.bias f4 [10]
00000000: 588f 9bbc 6c1a a6bc 9c6c d23b 5b60 31ba
00000010: 593d 20bc 2d81 dabc 00ea 803b 14c5 673b
00000020: 63b1 ad3c 6f16 8cbc
-0.01898925 -0.02027627 0.0064216387 -0.0006766372 -0.009780251 -0.026672924 0.003934145 0.003536527
0.021202749 -0.01710054

conv_block_2.8.running_mean f4 [10]
00000000: 8c93 5c3e 9520 38bd 5fd6 2e3e c4b1 2c3e
00000010: adc7 b33e c193 6d3d 1bad 523e caf0 0f3e
00000020: 1c76 c13d e833 c83d
0.2154066 -0.044952948 0.17073964 0.16864687 0.35113278 0.058002237 0.20573847 0.14056697
0.09446356 0.09775525

conv_block_2.8.running_var f4 [10]
00000000: 1fab 803f f1e7 703e f9bf 813f 0097 1b3f
00000010: c396 8c3f 75fd 033e 7599 a13f 0d1d 7d3e
00000020: 112e e03e 29b9 c23e
1.0052222 0.23525979 1.013671 0.6077728 1.0983509 0.12889655 1.2624956 0.24718113
0.43785146 0.3803189
